…
      (19): Conv2d (512, 512, kernel_size=(3, 3), stride=(1, 1), padding=(1, 1))
      (20): ReLU(inplace)
      (21): Conv2d (512, 512, kernel_size=(3, 3), stride=(1, 1), padding=(1, 1))
      (22): ReLU(inplace)
      (23): MaxPool2d(kernel_size=(2, 2), stride=(2, 2), dilation=(1, 1))
      (24): Conv2d (512, 512, kernel_size=(3, 3), stride=(1, 1), padding=(1, 1))
      (25): ReLU(inplace)
      (26): Conv2d (512, 512, kernel_size=(3, 3), stride=(1, 1), padding=(1, 1))
      (27): ReLU(inplace)
      (28): Conv2d (512, 512, kernel_size=(3, 3), stride=(1, 1), padding=(1, 1))
      (29): ReLU(inplace)
    )
    (roi_fmap): Sequential(
      (0): Linear(in_features=25088, out_features=4096)
      (1): ReLU(inplace)
      (2): Dropout(p=0.5)
      (3): Linear(in_features=4096, out_features=4096)
      (4): ReLU(inplace)
      (5): Dropout(p=0.5)
    )
    (score_fc): Linear(in_features=4096, out_features=151)
    (bbox_fc): Linear(in_features=4096, out_features=604)
    (rpn_head): RPNHead(
      (conv): Sequential(
        (0): Conv2d (512, 512, kernel_size=(3, 3), stride=(1, 1), padding=(1, 1))
        (1): ReLU6(inplace)
        (2): Conv2d (512, 120, kernel_size=(1, 1), stride=(1, 1))
      )
    )
  )
  (union_boxes): UnionBoxesAndFeats(
    (conv): Sequential(
      (0): Conv2d (2, 256, kernel_size=(7, 7), stride=(2, 2), padding=(3, 3))
      (1): ReLU(inplace)
      (2): BatchNorm2d(256, eps=1e-05, momentum=0.01, affine=True)
      (3): MaxPool2d(kernel_size=(3, 3), stride=(2, 2), padding=(1, 1), dilation=(1, 1))
      (4): Conv2d (256, 512, kernel_size=(3, 3), stride=(1, 1), padding=(1, 1))
      (5): ReLU(inplace)
      (6): BatchNorm2d(512, eps=1e-05, momentum=0.01, affine=True)
    )
  )
  (roi_fmap): Sequential(
    (0): Flattener(
    )
    (1): Sequential(
      (0): Linear(in_features=25088, out_features=4096)
      (1): ReLU(inplace)
      (2): Dropout(p=0.5)
      (3): Linear(in_features=4096, out_features=4096)
    )
  )
  (roi_fmap_obj): Sequential(
    (0): Linear(in_features=25088, out_features=4096)
    (1): ReLU(inplace)
    (2): Dropout(p=0.5)
    (3): Linear(in_features=4096, out_features=4096)
    (4): ReLU(inplace)
    (5): Dropout(p=0.5)
  )
  (rel_compress): Linear(in_features=4096, out_features=51)
  (freq_bias): FrequencyBias(
    (obj_baseline): Embedding(22801, 51)
  )
  (rel_fc): Linear(in_features=512, out_features=51)
  (obj_fc): Linear(in_features=512, out_features=151)
  (obj_unary): Linear(in_features=4096, out_features=512)
  (edge_unary): Linear(in_features=4096, out_features=512)
  (edge_gru): GRUCell(512, 512)
  (node_gru): GRUCell(512, 512)
  (sub_vert_w_fc): Sequential(
    (0): Linear(in_features=1024, out_features=1)
    (1): Sigmoid()
  )
  (obj_vert_w_fc): Sequential(
    (0): Linear(in_features=1024, out_features=1)
    (1): Sigmoid()
  )
  (out_edge_w_fc): Sequential(
    (0): Linear(in_features=1024, out_features=1)
    (1): Sigmoid()
  )
  (in_edge_w_fc): Sequential(
    (0): Linear(in_features=1024, out_features=1)
    (1): Sigmoid()
  )
)

检测结果：
 return Result(
            od_obj_dists=od_obj_dists,
            rm_obj_dists=obj_dists,
            obj_scores=nms_scores,
            obj_preds=nms_preds,
            obj_fmap=obj_fmap,
            od_box_deltas=od_box_deltas,
            rm_box_deltas=box_deltas,
            od_box_targets=bbox_targets,
            rm_box_targets=bbox_targets,
…
